…
 strides=(2, 2), padding=\"same\"))\nmodel.add(Conv2D(32, (3, 3), activation='relu'))\nmodel.add(MaxPooling2D(pool_size=(2,2), padding=\"same\"))\nmodel.add(Dropout(0.25))\n#model.add(Flatten())\nmodel.add(Dense(128, activation='relu'))\nmodel.add(Dropout(0.5))\nmodel.add(Dense(8, activation='softmax'))\n#model.add(Flatten())\nmodel.summary()\n</code></pre>\n\n<p>Model Summary - expecting 500, 687, 8 out at the end</p>\n\n<pre><code>Layer (type)                 Output Shape              Param #   \n=================================================================\nconv2d_54 (Conv2D)           (None, 2002, 2751, 32)    1760      \n_________________________________________________________________\nmax_pooling2d_52 (MaxPooling (None, 1001, 1376, 32)    0         \n_________________________________________________________________\nconv2d_55 (Conv2D)           (None, 999, 1374, 32)     9248      \n_________________________________________________________________\nmax_pooling2d_53 (MaxPooling (None, 500, 687, 32)      0         \n_________________________________________________________________\ndropout_57 (Dropout)         (None, 500, 687, 32)      0         \n_________________________________________________________________\ndense_59 (Dense)             (None, 500, 687, 128)     4224      \n_________________________________________________________________\ndropout_58 (Dropout)         (None, 500, 687, 128)     0         \n_________________________________________________________________\ndense_60 (Dense)             (None, 500, 687, 8)       1032      \n=================================================================\nTotal params: 16,264\nTrainable params: 16,264\nNon-trainable params: 0\n_________________________________________________________________\n</code></pre>\n\n<p>compile </p>\n\n<pre><code>sgd = SGD(lr=0.01, decay=1e-6, momentum=0.9, nesterov=True)\n\nmodel.compile(loss='categorical_crossentropy',\n            optimizer='sgd'
…
